lidar_goal_generator/models/torch_A2C_model.pt (torch, 26839 bytes, 6 tensors)

fc1.weight f4 [64, 18]
000000 7b 8e 18 40 1e 26 69 3e 29 8b 3c 3f 6b 13 1e bf
       2.3836963 0.22768447 0.7364984 -0.6174838
000010 0c 83 2e be ee 4b 8f 3e 84 c1 79 3e e4 0c 0d 3f
       -0.17042178 0.27987617 0.24390227 0.55097795
000020 c1 14 b4 bc 9a 80 ad 3e f4 7a 2a 3f c9 3e 42 3f
       -0.021982552 0.33887178 0.6659386 0.7587705
000030 93 b5 ab 3e 0e bd 40 bf b3 c6 4b bf d4 f4 7a be
       0.33536968 -0.75288475 -0.79600066 -0.24507457
000040 8b 10 b4 bf 10 9c a1 be bc 3a 10 3f db c2 ac be
       -1.4067549 -0.3156438 0.5633962 -0.33742413
000050 75 8a e5 be 75 21 8f bd 0f cc 0f be 5b c5 e3 3e
       -0.44832197 -0.06988803 -0.14042686 0.44486508
000060 9f 31 80 bf 7d 44 05 3f 96 4c e4 3e a7 7e dd be
       -1.0015143 0.5205763 0.4458968 -0.4326069
000070 7d 38 c8 3d 37 54 20 3f eb 48 c2 3f af 0f 8f 3e
       0.09776399 0.626285 1.5178503 0.27941653
000080 85 67 b4 be 0e 59 ae 3f 0f 57 c1 3e f3 6f 99 bf
       -0.3523523 1.3620927 0.37761733 -1.1987289
000090 7e 3f bd 3f 0a f1 47 bd c0 d2 c0 3e 5d 2d 5f bc
       1.4785001 -0.048813857 0.3766079 -0.013621655
0000a0 fc f0 af be 5f 6a a9 3e d7 fe 3a bf f3 4c aa be
       -0.34363544 0.33088967 -0.73045105 -0.33261833
0000b0 ea c0 89 3e 8a d2 69 be 48 d4 37 c0 ba 07 e3 bf
       0.26904994 -0.2283422 -2.8723316 -1.7736733
0000c0 39 33 3f bf 49 96 07 3e 26 7f 0b 3e 79 33 1d 3f
       -0.74687535 0.13240923 0.13622722 0.61406666
0000d0 10 6d b1 be 74 32 07 bf 59 a9 00 3f e2 21 85 3d
       -0.3465352 -0.5281136 0.50258404 0.06500603
0000e0 ea 97 2e bf 7a d4 f5 bd 56 b6 ec bc d1 e5 1f be
       -0.6820055 -0.12003417 -0.028895538 -0.15615012
0000f0 78 7a 8f be 0e da df bf 22 bc b8 bf 3a 78 ab bd
       -0.28023124 -1.748842 -1.4432414 -0.08372541
000100 09 d7 87 3f 61 90 ae 3f 0c a7 34 bd 1d 91 9b bf
       1.0612499 1.3637811 -0.04410462 -1.215366
000110 fd 2c 87 bf d5 b5 f5 bd 62 f9 45 3f 3b 95 84 3e
       -1.0560604 -0.11997572 0.7733365 0.25895104
000120 14 17 c3 be 19 11 46 3e 76 58 01 3f f3 62 c6 be
       -0.38103545 0.1934246 0.50525606 -0.38747367
000130 ab 7e 07 3e 8c bf df 3e 0b 34 26 3f d7 22 53 3f
       0.13231914 0.43700826 0.6492316 0.82475036
000140 b0 04 3b bf 80 3b d2 bc 49 d3 77 3e b8 e6 45 bf
       -0.7305403 -0.025663137 0.24201693 -0.77305174
000150 0d 9b 5d bf 57 6c 8f bf 82 70 4a bf a8 75 99 3e
       -0.86564714 -1.1204938 -0.79077923 0.29972577
000160 ae 6e 39 3e 9a 4e 2f bf ee 95 c6 3e 11 5c c0 bc
       0.18108627 -0.6847931 0.38786262 -0.0234814
000170 85 fb 86 3e 0d e8 af be 0c ea 99 3e 4b 56 65 3d
       0.2636377 -0.34356728 0.30061376 0.0559905
000180 22 59 29 bf 63 2e 53 bf 88 e3 f2 bd 0c de 3a 3f
       -0.6615163 -0.82492656 -0.118598044 0.72995067
000190 0f 77 29 3e 1c ac 92 bc f3 03 96 be aa cb 1f bf
       0.16549323 -0.017904334 -0.29299888 -0.6242014
0001a0 08 36 b8 be 3f 6b 9a 3f e6 37 17 40 34 5b 5b 3f
       -0.35978723 1.2063979 2.3627868 0.8568604
0001b0 eb a0 0d 3f 9a ac 23 bc f8 84 8b bc 05 65 6a bf
       0.55323666 -0.009989882 -0.017031178 -0.91560394
0001c0 77 d5 02 3f 4e ba 99 3e 35 a4 05 bf 20 98 96 bf
       0.5110697 0.30024952 -0.52203685 -1.1765175
0001d0 20 b7 3a be c1 09 cd 3f d5 bb ac 3f e2 a9 d5 bd
       -0.18233919 1.6018602 1.3494822 -0.10432793
0001e0 37 e6 c7 be 2f fa 5a bd 9c 08 93 3c a4 19 a9 3e
       -0.39042827 -0.05346125 0.017948441 0.33027375
0001f0 3f e0 b7 3f ba d0 b7 3f 46 d7 02 3f c3 62 eb bd
       1.436531 1.4360573 0.5110973 -0.11493447
000200 4d fa 71 3c 7b 0f a9 be 58 ad dd 3d 77 60 18 3d
       0.014769149 -0.33019623 0.10824078 0.03720137
000210 c5 5c ca 3f 0d da ab be cd 7f 92 bf fc 09 12 be
       1.5809561 -0.33564797 -1.1445252 -0.14261621
000220 90 67 5a 3f e6 e9 38 3e e5 5a cd 3e 8d 67 98 3e
       0.85314274 0.18057975 0.4010841 0.29766503
000230 be 44 5a 3e 4e 3d 5c bf 0b ab 31 3f 36 a2 20 40
       0.21315286 -0.86031044 0.69401616 2.5099006
000240 fc d2 6d c0 97 d8 ec be a9 53 0e 3f b6 3c c4 3e
       -3.7160025 -0.46258995 0.55596405 0.3832757
000250 55 53 d8 3e 1d a6 8f 3e 07 d3 69 bf 78 70 99 be
       0.42251077 0.28056422 -0.9133763 -0.2996862
000260 c8 87 c3 be 02 fd 40 bd c5 49 b1 3e 1f 2a 70 be
       -0.3818953 -0.047116287 0.34626594 -0.23453568
000270 e4 6e 20 3e 11 d8 2b 3f 2f 7e 63 3f 4c 2e a1 3d
       0.15667301 0.67126566 0.88864416 0.078701586
000280 91 27 5a bf 32 04 7c bf f7 dc 47 c0 3d ef a6 be
       -0.85216624 -0.984439 -3.1228616 -0.326044
000290 2f 6f 5d be 30 83 3f 3e 61 a4 01 bf 31 94 bd bd
       -0.21624444 0.18702388 -0.5064145 -0.09256781
0002a0 da e7 de bd 47 0d 99 bf 4e 55 71 bf 91 7b 30 bf
       -0.10884066 -1.1957177 -0.9427079 -0.6893855
0002b0 2a 32 58 3d 75 0d eb 3d 73 bf 94 3c 63 09 cf bd
       0.052782215 0.11477176 0.018157696 -0.10109212
0002c0 b4 b7 96 3e 37 eb 50 3f c7 f6 10 3e 89 1c 64 be
       0.2943703 0.8160891 0.14156638 -0.2227651
0002d0 30 33 18 bf 71 62 a2 3e 92 2d 9f be 18 51 9b 3e
       -0.59453106 0.3171573 -0.31089455 0.30335307
0002e0 7b b4 ae be ad a4 f9 3e 6e 82 81 3f c5 fd 7c 3f
       -0.3412207 0.4875845 1.0117929 0.9882472
0002f0 fd 32 2a 3d a4 11 14 3d b5 f8 fc bd ba 6f d7 be
       0.041552532 0.036149636 -0.123521246 -0.42077428
000300 cd 64 95 bf 96 9c c9 3d 00 e2 73 3f 43 3c 56 bf
       -1.1671387 0.098443195 0.95266724 -0.836857
000310 88 18 ba bf df e9 ce be 22 6a 74 3e b7 43 c0 3d
       -1.4538736 -0.40412804 0.23868611 0.093879156
000320 a7 9d 45 bf 45 ed d4 3e e3 ea 65 bd be c1 35 3e
       -0.77193683 0.41587272 -0.05613221 0.17749688
000330 cf d2 d9 bf 16 fc 45 c0 1a 73 5d bf 39 07 6a bd
       -1.7017459 -3.093511 -0.86503756 -0.057135794
000340 7c bc 9d 3e 43 67 93 be 83 8f 51 bf 9c 61 60 bd
       0.30807865 -0.2878972 -0.81859607 -0.054780588
000350 0e cb 1c be 70 32 90 bd 96 50 79 3e e1 ce 22 be
       -0.15311834 -0.0704087 0.24347147 -0.1589923
000360 61 0f 61 3e 2a 45 98 3d 87 c8 19 bf e3 56 a4 be
       0.21978523 0.07435067 -0.60071605 -0.3209754
000370 2b 97 07 bd 48 0f 4e be 38 b9 6c bf b9 80 a7 be
       -0.03310315 -0.20123017 -0.9247012 -0.32715395
000380 a5 98 48 bd f9 c8 6e 3f c3 9e 27 3f 22 39 92 3d
       -0.0489737 0.9327541 0.65476626 0.071398035
000390 e3 3e 20 bf fd d6 a0 3d 10 10 45 3f 72 2a 57 bf
       -0.6259596 0.07853506 0.76977634 -0.8404914
0003a0 92 91 09 c0 c0 0d 8f bf cc 8d c0 3f a9 eb e5 3d
       -2.14951 -1.1176071 1.5043273 0.11226589
0003b0 d1 00 9c 3e ea f2 9d 3e 47 42 63 be 03 da 0c 3f
       0.30469373 0.3084939 -0.22193252 0.5502016
0003c0 05 58 e3 bc e0 1c bb 3f 1c 94 ff 3f 07 47 72 3f
       -0.027751932 1.4618187 1.9967074 0.9463963
0003d0 1f e2 91 3e 54 2f a0 be 52 22 2d be d9 b4 d9 be
       0.2849283 -0.31286108 -0.16907623 -0.42520788
0003e0 d4 c8 e7 be c0 ee be 3d 4b 92 4d bf db 1d 10 bf
       -0.45270407 0.09322882 -0.8030135 -0.56295556
0003f0 e6 31 f3 bc f9 36 dc 3e fb da d9 be e4 d0 84 3e
       -0.02968688 0.4301069 -0.4254988 0.2594062

fc1.bias f4 [64]
000000 df ad 87 3e 94 e3 0a bf 9e 4e e4 3e 8f 07 c6 3e
       0.2649984 -0.54253507 0.4459123 0.38677642
000010 e1 d6 23 3e 14 6c 2e bf c8 3f 45 bf e6 fe 55 bf
       0.15999939 -0.68133664 -0.7705045 -0.8359207
000020 7e 72 ed bd 96 74 50 be 4b c2 3b 3f c0 69 61 3f
       -0.11594103 -0.20356974 0.7334334 0.88051987
000030 b3 15 99 3f 2a 3b 63 be 95 11 8d 3f f2 5c 21 bf
       1.1959747 -0.22190538 1.1020991 -0.6303245
000040 67 43 a2 3d 59 a9 83 3f be 89 3c bf e2 df 40 3f
       0.07923012 1.0286056 -0.7364768 0.7534162
000050 ac ea c3 be 5b e5 28 3f 01 dc b4 bd 34 ec 92 3f
       -0.38264978 0.6597497 -0.08831025 1.1478333
000060 2f 54 32 3f 26 4c 10 bf ca 15 ff 3c 57 34 2a be
       0.69659704 -0.56366193 0.03113832 -0.16621529
000070 80 69 a3 be 83 e3 74 be fb 02 25 bf d2 27 49 3e
       -0.31916428 -0.23914914 -0.6445767 0.19644096
000080 ba 27 dc 3d e8 82 9a bf 0b aa 1b 3f 54 75 30 3d
       0.10749765 -1.20712 0.6080634 0.043080643
000090 71 49 a1 bf 0c 67 5b 3f 89 4d a0 3f f4 e2 1d bf
       -1.2600538 0.8570411 1.2523662 -0.6167443
0000a0 4e b8 b5 3e 56 e0 84 bc 6e 8d 16 bf 22 71 50 3f
       0.35492176 -0.016220253 -0.58809555 0.81422627
0000b0 a8 49 60 bf c9 d2 00 3e 83 8a ae 3e 03 4d 0c 3f
       -0.8761239 0.12580408 0.3409005 0.5480501
0000c0 48 da bf be 45 fe 66 bf 3c 20 9e 3e 71 17 3f be
       -0.37471223 -0.90231735 0.30883968 -0.18661286
0000d0 94 c4 c9 3d d6 01 70 bf 6e c2 83 be 0c 29 96 3f
       0.098519474 -0.937528 -0.25734276 1.1731277
0000e0 f4 0c c7 3e 2a c7 eb 3d 5c 9d 9a 3f 54 35 b7 be
       0.3887707 0.11512597 1.2079272 -0.35782874
0000f0 7a 7b 04 bd a8 b4 8e be 6b 02 b7 3f 90 49 36 3f
       -0.03234432 -0.27872205 1.4297613 0.71206

fc2.weight f4 [64, 64]
000000 53 12 01 be 72 73 d1 bd 28 91 f7 3e 0e 54 11 3f
       -0.12604646 -0.102270976 0.48352933 0.5676888
000010 43 de 9f 3e f4 fc 1f be 65 72 f1 be 67 d2 05 be
       0.3122426 -0.15623838 -0.4715759 -0.13068543
000020 ac 84 d4 bd 9f 19 d0 3e 44 b4 6f 3e 47 79 c3 3e
       -0.10376868 0.40644547 0.2340861 0.38178465
000030 e1 1d 46 3f 6c 48 13 bf f1 24 09 3f 3b 79 32 bf
       0.7738934 -0.5753238 0.53571993 -0.69716233
000040 64 bf 17 3e 20 ce 03 3f f8 1b a2 3c 59 38 ae be
       0.14819103 0.51486397 0.019788727 -0.34027365
000050 fd 3b da be 90 cb ad 3e 5a d1 fd 3d 13 e9 b1 3d
       -0.42623892 0.33944368 0.12393446 0.086870335
000060 31 08 58 3e 2d de 71 be c6 b2 16 3e 46 b5 2d be
       0.21096875 -0.2361991 0.14716634 -0.16963682
000070 3a 9f 2d 3e b4 d5 bf be 36 00 8c bd 39 4a e4 3d
       0.16955271 -0.3746773 -0.06835978 0.11146969
000080 38 cd 07 bd cc 7e ea be 6e 74 8a 3e f3 a1 46 3e
       -0.033154696 -0.45799863 0.27041954 0.19397716
000090 d4 c6 bb bd 3c dc 14 3f 75 d6 0c bd f7 71 e9 be
       -0.09168783 0.5814855 -0.03438421 -0.4559476
0000a0 76 cd 99 3e 6b fd 8c be 9e b9 39 3e 9d 8c 15 3f
       0.30039567 -0.27537093 0.18137214 0.58417684
0000b0 29 4b 06 bf 5d ea 88 bd 93 93 16 3f 51 e2 fd 3e
       -0.52458435 -0.06685326 0.5881893 0.49586728
0000c0 82 ca f6 be 1c 69 c3 be 90 3f 02 be 82 c4 90 be
       -0.48201376 -0.3816613 -0.1271956 -0.28274924
0000d0 a3 f4 99 3e fb fc 10 be e7 b2 85 be 1b 03 d3 3d
       0.30069456 -0.14159004 -0.26113054 0.10303327
0000e0 23 30 41 3e d5 38 00 bf 3e 60 53 3e 3c 9c e2 be
       0.18866019 -0.5008672 0.20642182 -0.44259822
0000f0 f3 50 8e be 6a 5f c4 be d3 e9 80 3e 48 71 73 bc
       -0.27796134 -0.38354045 0.25178394 -0.014858551
000100 a2 96 be bd 16 28 2b be ab a3 02 be 36 e9 9b be
       -0.09306075 -0.1671451 -0.12757747 -0.30451363
000110 7c 79 c1 3e 53 c8 42 bf 98 bf ef be 46 1f 11 bf
       0.37787998 -0.7608692 -0.46825862 -0.56688344
000120 09 d7 5b 3f ef 27 81 3e ff 4a 8c 3e 1e 96 04 bf
       0.8587499 0.2522578 0.27400967 -0.5179156
000130 65 e8 3b 3e 4d 6a 44 bd 00 19 0e 3f bf 41 2a be
       0.1835037 -0.04795294 0.55506897 -0.16626643
000140 23 19 a0 3e 96 a5 19 3f c1 8d ab be 6b d7 36 3e
       0.31269178 0.6001829 -0.33506587 0.17855613
000150 f7 05 49 bf 05 36 3f 3e ab e7 ab be 43 b4 0c 3f
       -0.78524727 0.1867295 -0.33575186 0.5496256
000160 82 e1 3f 3e 69 e2 b4 3e 50 a0 34 3d 02 c7 4c be
       0.18738368 0.35328987 0.0440982 -0.1999779
000170 92 86 16 bf 0d ea ca be 25 88 76 3d b3 90 cc be
       -0.5879909 -0.39631692 0.06018843 -0.39954147
000180 3f a4 74 be a9 03 e8 be a7 5e 3c 3e d8 93 2c bf
       -0.2389078 -0.45315292 0.18395482 -0.6741309
000190 d4 7b 6d b7 a1 7e 84 bd 42 4f d2 3e 68 df 61 3e
       -1.4155132e-05 -0.06469465 0.41076094 0.22057879
0001a0 fd 23 5f 3f 7e d3 7b 3f 65 72 88 3e 10 2b f5 3e
       0.8716429 0.98369586 0.26649776 0.47884417
0001b0 29 73 10 bf b2 73 72 be 07 fd 15 be 84 a7 b9 be
       -0.5642572 -0.23676947 -0.14647304 -0.36260617
0001c0 9f 77 33 bf 91 ce d1 bd b1 07 cb 3d da f8 2a bf
       -0.701044 -0.102444775 0.099135764 -0.6678597
0001d0 0c a0 b4 be 03 e9 37 bd 7f 71 e0 be 73 b7 d1 3d
       -0.35278356 -0.04489995 -0.4383659 0.10240068
0001e0 65 3e 5c 3f 08 c9 05 3f dd 00 0f 3f cc e3 89 3e
       0.86032706 0.52259874 0.5586069 0.26931608
0001f0 bd 08 82 3d a5 c2 4d 3f 56 16 ad 3e ff 22 84 be
       0.06349323 0.8037513 0.33806103 -0.2580795
000200 f5 8e 6f be e4 ea a1 be 0a fe b0 3c 68 7c 3b 3e
       -0.23394378 -0.3162452 0.02160551 0.18309176
000210 45 41 84 be 1a 61 b4 bc b7 08 10 3e fd 0d 4d 3f
       -0.25831047 -0.022018958 0.14065824 0.8009947
000220 40 d2 0c bd 97 43 82 bc d7 8d 44 be 6d 8d 32 be
       -0.034380198 -0.01590137 -0.19194733 -0.17436762
000230 4a 25 c1 bf 14 fb 34 3c 8d 60 a0 be bc 62 e5 3e
       -1.5089505 0.01104619 -0.31323662 0.4480189
000240 25 8e 27 bf 98 cb a0 be 15 a6 ef 3e c5 65 32 be
       -0.6545127 -0.3140533 0.46806398 -0.17421634
000250 e1 d7 ae 3e 08 1c e2 be c3 dc 45 3e 72 a1 7f bd
       0.34149078 -0.4416201 0.19322495 -0.062409826
000260 b0 57 6d bf fa e7 20 3d 97 39 19 be b7 4b 6c 3d
       -0.92711926 0.03928373 -0.14963375 0.057689395
000270 79 36 4b 3f 70 7e 19 ba 93 55 ab bd 38 8f f8 bd
       0.79379994 -0.00058553275 -0.08365931 -0.12136692
000280 00 13 e5 be 60 9d a5 be 41 77 ec bd 74 ed 66 3d
       -0.44741058 -0.3234663 -0.115461834 0.056378797
000290 5a ed 2d 3f 4d c8 a6 3e 97 d9 66 be c5 4c 15 be
       0.67940295 0.32574692 -0.22543941 -0.14580067
0002a0 a7 7e 8e be a7 8c b6 bd 05 0a b5 bd 49 dc 13 3f
       -0.27831003 -0.08913546 -0.08839802 0.57758003
0002b0 2e f3 22 3f 63 0b 65 bd 0e f4 d9 be 12 04 69 3e
       0.6365231 -0.055919062 -0.4256901 0.22755459
0002c0 e4 f9 3b 3f e8 f9 8e 3f 38 ad 0e 3f bb ed f3 3e
       0.7342818 1.1170015 0.5573306 0.4764231
0002d0 fb a9 b3 3e b9 f7 7b be 0f b3 5f 3f b9 df eb bf
       0.35090622 -0.24606217 0.87382597 -1.842765
0002e0 85 49 43 bf 5a e4 8c bd 11 e6 56 be ef ec 93 bd
       -0.76284057 -0.06879492 -0.20986201 -0.07222926
0002f0 92 89 48 3d e7 d3 41 3e 5a 7f 20 bf 24 df d3 3e
       0.048959322 0.1892849 -0.62694323 0.4138118
000300 13 a4 14 3f 47 b1 fa 3c bc c2 4e be cd 6a 1e bf
       0.5806286 0.03060211 -0.20191473 -0.61881715
000310 83 4b f8 3e c0 d0 d1 bd e8 00 26 be 24 90 bf 3e
       0.4849511 -0.10244894 -0.16211283 0.37414658
000320 54 e2 5c bf 6e 14 58 bf 2c 78 a0 be 80 0f 90 bf
       -0.8628285 -0.84406173 -0.31341684 -1.125473
000330 0f d2 25 bf 6f 7d 1e 3f f2 b4 54 bf dd a2 6a be
       -0.6477365 0.61910146 -0.830886 -0.2291369
000340 eb 92 5c bd 86 af 76 bf 9a 62 7e 3c c5 11 7b be
       -0.05385105 -0.9636158 0.015526438 -0.24518497
000350 36 c0 1d 3f 64 f2 a1 3d a2 ff db bc 66 b1 b9 be
       0.61621416 0.079075605 -0.026855294 -0.36268157
000360 0e 9a 3b 3c 61 20 d9 be 3a a6 95 bf a3 e5 20 be
       0.011450304 -0.42407516 -1.1691353 -0.157126
000370 af fd 6e 3e 1e e4 f6 3e f8 15 41 3f a2 78 44 be
       0.2333896 0.48220915 0.75424147 -0.19186643
000380 18 83 b7 3e de 83 6f 3f 4b d5 42 be 69 e1 11 3b
       0.35842204 0.9356059 -0.19026677 0.00222596
000390 3b 26 93 3e c4 c1 6a bf b0 33 70 bf 47 7d 59 bd
       0.28740105 -0.9170191 -0.9382887 -0.05309799
0003a0 b7 d3 cc be e6 0b 10 bc 31 50 60 3e a7 a8 94 be
       -0.40005276 -0.008791899 0.2190559 -0.29034922
0003b0 c2 93 b9 3d 2f cf e2 be 05 a9 1b 3e 91 d1 a9 bd
       0.09061386 -0.44298694 0.15201195 -0.08291925
0003c0 e2 59 ca 3b 7d 7d c4 bd 1a 86 89 bd 92 ce e1 be
       0.0061752656 -0.095942475 -0.06715031 -0.44102913
0003d0 6d 41 35 be 13 9f 42 3f 53 95 06 bf 4b b6 3b bf
       -0.17700739 0.7602398 -0.525716 -0.7332503
0003e0 34 fa 4a 3e 8b b3 b8 be 60 e6 00 bf 81 3b 3d 3f
       0.19822007 -0.3607448 -0.50351524 0.7391892
0003f0 bf 72 40 3e 3c f8 2d be fd 7d b9 be 4d c5 0a bf
       0.18793772 -0.16989225 -0.36228934 -0.5420731

fc2.bias f4 [64]
000000 3e f8 8e bf a2 ec c0 3d 5b 37 f3 3d 3b c5 7c be
       -1.1169508 0.09420134 0.118757926 -0.24684612
000010 63 41 1c be 3d ee 01 bf e0 24 9d 3d 67 67 d9 be
       -0.15259318 -0.5075415 0.07673049 -0.42461702
000020 87 96 bc 3e 66 23 4b be af e0 1c 3f 10 d6 34 3f
       0.36833593 -0.19837722 0.6128034 0.70639133
000030 e0 42 b5 3e 56 7d 1c be 2e 1b 4f be bd 53 45 3e
       0.35402584 -0.15282187 -0.20225212 0.19270225
000040 d1 e7 96 be d6 ee 50 3b e9 9e 4f 3e 81 9d e2 3e
       -0.29473737 0.0031880639 0.20275463 0.4426079
000050 07 d3 41 3f 0a 27 b1 3e 0f 8a e0 3e e8 ed f3 bd
       0.7571263 0.34600097 0.4385533 -0.119106114
000060 f3 65 97 be 1b 44 cf bd 77 ef 34 bd 96 af 31 3d
       -0.2956997 -0.10120412 -0.044173684 0.043380342
000070 a4 16 15 3e 45 c2 5f 3e 9a 0b 69 3e 49 a6 66 bf
       0.14559418 0.21851452 0.22758332 -0.9009748
000080 ea d4 4a 3e 90 22 28 be e3 fe 4f be 33 76 ee 3d
       0.19807783 -0.16419435 -0.20312075 0.116436385
000090 f8 80 07 3f 81 d0 a4 3b b3 f4 a0 3e 3a 30 a2 be
       0.52931166 0.0050297384 0.3143669 -0.3167742
0000a0 7c 12 20 3e 16 b1 50 3c 6a 64 2c bd 3d ee ac 3e
       0.15632051 0.012737533 -0.04208795 0.3377551
0000b0 69 2a bc be 4b 19 a5 bd 6f 30 aa 3e 9d 09 90 3d
       -0.36751106 -0.08061465 0.33240077 0.070330836
0000c0 4e a6 b0 3e 0d 0a 1f be 93 f6 37 3e 70 94 b4 3e
       0.3450188 -0.15531178 0.17965154 0.352695
0000d0 03 fc ca be fc aa bf 3e 85 91 30 bf b6 22 9a 3e
       -0.39645395 0.37435138 -0.68972045 0.30104607
0000e0 5d bb a3 be 8a 5f f4 bd 97 ce d8 3e 45 56 0c bf
       -0.31978884 -0.11932285 0.42345116 -0.54819137
0000f0 a8 a4 1c 3f 01 8d df bd 6f e8 11 3d 9f 84 59 3d
       0.61188745 -0.10915566 0.035622057 0.053104993

fc3.weight f4 [12, 64]
000000 e8 9b 92 be c1 be d5 3d 83 42 08 bf 7f db 5d bf
       -0.28634572 0.10436774 -0.5322649 -0.8666305
000010 bc fc 8b be ec bb ca be 2c 75 98 3e 56 f1 44 3e
       -0.2734126 -0.39596498 0.29776895 0.19232687
000020 bc 18 e3 3e 63 64 f2 be 97 fa 00 3f 63 56 92 3e
       0.44354808 -0.47342214 0.5038237 0.28581533
000030 b8 a8 7c 3f ff 4e 71 3e 98 cb 87 3f c1 46 d4 3e
       0.98694944 0.23565291 1.0609007 0.4146023
000040 bb a0 11 3e 83 59 4f be 7b ed 2e be f3 f3 24 3f
       0.1422147 -0.2024899 -0.17082779 0.64434737
000050 2b 71 28 bf c9 64 3f 3f 53 eb 1d bf 1c 3f c2 be
       -0.6579768 0.7476316 -0.616872 -0.37938774
000060 03 5a 18 bf aa 21 51 bf 4a 16 50 be 29 57 a1 bc
       -0.59512347 -0.8169199 -0.20321003 -0.019694882
000070 66 81 26 3f 3b be 54 3f 5f 1d e4 be c0 11 c5 3c
       0.65041196 0.8310277 -0.44553658 0.024056315
000080 4c a9 9d bf 63 ac af 3d e3 54 03 3f b3 dd d6 3e
       -1.231729 0.08577802 0.513014 0.41966018
000090 d1 da 8b 3e cc 7d 83 3f ad 6e a8 3e 96 5f 9e be
       0.2731538 1.0272765 0.3289694 -0.309323
0000a0 9d d5 c1 3e 79 94 32 be 47 84 98 3f ee f8 03 bf
       0.37858286 -0.1743945 1.1915368 -0.5155171
0000b0 a7 a3 27 be 2c e4 56 3e 13 25 8a 3e 56 72 66 3e
       -0.16371022 0.20985478 0.2698141 0.22504553
0000c0 e1 be 1f 3f f8 cd 89 3e ad 91 8e bd 53 49 93 3e
       0.62400633 0.26914954 -0.06961379 0.2876688
0000d0 79 a4 45 be 63 7f 0d be 25 24 88 3e ce c9 cd 3f
       -0.19301023 -0.13818125 0.26590076 1.6077211
0000e0 c1 26 1f bf 9d e4 15 3f 40 b0 2d 3e d1 2a 3f 3e
       -0.6216851 0.5855196 0.16961765 0.18668677
0000f0 67 6c 50 3f b2 c5 9e be ef b1 b8 3d 24 d8 3d 3e
       0.8141541 -0.31010205 0.09018313 0.18539482
000100 99 80 19 be 3e 87 1e 3e 43 a1 83 3e 0f 87 c2 bf
       -0.14990462 0.15481278 0.2570897 -1.5197467
000110 9a dc 41 bf eb 12 f3 be ad da f8 be 33 f7 49 bf
       -0.75727236 -0.4747537 -0.48604336 -0.7889282
000120 f0 6f 3f bf f3 ef de 3c 65 e9 50 3f 57 e4 3e bd
       -0.7478018 0.027214026 0.8160613 -0.04660448
000130 43 17 87 3f 2c 20 0e bf c1 93 f5 3e 04 8d 36 3e
       1.0553974 -0.5551784 0.4796429 0.1782723
000140 7f 19 fc bd be 75 06 bf a9 fb 62 bf 65 56 4d be
       -0.123095505 -0.5252341 -0.8866525 -0.20052488
000150 d8 83 ff be cf 50 65 3f 7e b8 cf be 4e 68 06 bf
       -0.49905276 0.8957643 -0.40570444 -0.52502906
000160 98 ba a9 be 7c 38 28 bf ce 62 17 bf a6 cd 2f bf
       -0.33150172 -0.6571119 -0.5913514 -0.6867317
000170 31 fc 08 3f d9 a2 95 be 3a 5e 83 bd c6 ad 8c 3f
       0.53509814 -0.29225805 -0.06414457 1.0990531
000180 ce 03 53 bf e2 44 03 be 4f cb bf 3d 35 5b 79 3f
       -0.8242768 -0.12819245 0.0936495 0.97404796
000190 fc 8a 3e 3e e7 d1 77 3f 8f a9 dd bd 86 a0 1b bd
       0.18607706 0.9680466 -0.10823356 -0.037994884
0001a0 20 97 da 3e fb eb 19 3c 63 3e 4b 3f 84 c4 2b bf
       0.42693424 0.009394641 0.7939207 -0.67096734
0001b0 b8 3d ee be d9 e5 4f 3f 9c de fa be 46 cd a5 3e
       -0.46531463 0.81210095 -0.48997962 0.32383174
0001c0 44 1e 5b 3e 54 82 8b be 8a f8 35 3d 52 f8 f5 3e
       0.21398264 -0.2724787 0.04442648 0.48041016
0001d0 13 45 b2 be b8 24 62 3e a3 1d d5 be 2b 05 c6 3e
       -0.34818324 0.2208432 -0.41624174 0.38675818
0001e0 86 25 c8 be ce 2b 31 bd 18 22 c9 be b4 6b b5 3d
       -0.39091128 -0.043254666 -0.39283824 0.08858433
0001f0 33 97 5d 3e 5c 7c 18 3e 1b 10 29 3d 65 49 91 3c
       0.21639709 0.1489119 0.041275125 0.017735193
000200 f5 e5 e4 3e 16 5c 95 3e 83 96 67 3e f1 05 04 be
       0.44706693 0.29171818 0.2261601 -0.12892891
000210 65 f5 45 bf 7b 40 22 be 31 60 44 bf 2b f3 1c bf
       -0.7732757 -0.1584491 -0.76709276 -0.61308545
000220 11 08 f6 bf 07 ab fd 3d 6b 6a 55 3f d5 85 82 3d
       -1.9221212 0.123861365 0.83365506 0.06373183
000230 a2 0c 82 3f b3 c7 28 be 2b 8e fe bd 0e 51 8e be
       1.0160105 -0.16482429 -0.1242946 -0.27796215
000240 09 57 0a 3f f0 43 d0 be 71 da 86 bf ce 43 b4 be
       0.54039055 -0.40676832 -1.0535413 -0.3520798
000250 de a0 ee bd 8c 1b 60 3e ae 23 e2 be d4 e0 5e be
       -0.11651777 0.21885508 -0.44167846 -0.21765453
000260 4a 7f ee 3d 54 01 fb 3d 76 c9 b2 bd 5b b9 2f bf
       0.11645372 0.12256113 -0.08729832 -0.68642205
000270 15 94 df 3d 1c 87 08 bf 0c 9c a9 3e d6 ed 77 3f
       0.10916916 -0.5333116 0.33126867 0.96847284
000280 db c6 9a be c8 a0 16 be de 90 ed be 4b bb 03 3e
       -0.3022984 -0.1470977 -0.46399587 0.12864415
000290 99 3f 3b be ec 76 9f be 8b a1 66 bf 5d fe 03 3e
       -0.1828598 -0.31145418 -0.90090245 0.1289
0002a0 b2 ab 05 3b a8 76 1b 3e 29 5b e0 3e 7a 4d 0c bf
       0.0020396528 0.15181983 0.4381955 -0.5480572
0002b0 ee 6d 52 bf 8c 8d dc 3e 02 7d ac be 98 e8 99 bd
       -0.8219899 0.43076742 -0.33689123 -0.07515067
0002c0 ce 31 9e be 8b 64 04 bd 8d 7d 53 be ef b3 d4 3c
       -0.30897373 -0.032322448 -0.20653363 0.025964705
0002d0 3a df 03 bf 7f e7 da 3e 8f 01 5b bf b3 c5 05 bf
       -0.5151249 0.42754743 -0.85549253 -0.5225479
0002e0 a3 99 03 bd 89 80 08 bf 3d 95 2d bf de 3f bc 3c
       -0.03212894 -0.5332113 -0.67805845 0.022979673
0002f0 5e 24 22 bf c1 6d 3a 3f 48 e2 5e 3d c3 ff bd bd
       -0.6333674 0.7282372 0.054415017 -0.09277298
000300 35 42 03 3e bf d9 de be c3 d6 0c 3f f9 ed bf 3e
       0.12818225 -0.43525502 0.550152 0.37486246
000310 1a 34 3f be e9 d3 ce 3e 8a 3e 80 be 00 a8 95 3e
       -0.18672219 0.4039605 -0.25047714 0.29229736
000320 c7 ff 68 bf b2 06 08 3f 81 38 b0 3e 9c 75 88 3d
       -0.91015285 0.53135216 0.3441811 0.06663057
000330 9d b4 36 bf b5 ed 78 3f e8 44 4e 3e 9d 0c e1 be
       -0.71369344 0.9723771 0.20143473 -0.43954936
000340 94 81 b0 3e f5 40 53 3f e1 0e 36 bf 6e 48 18 bf
       0.3447386 0.8252099 -0.71116453 -0.5948552
000350 88 5f 63 3e e5 cb 1a bf e6 7c 92 bc 79 6c 13 bf
       0.22204411 -0.6046737 -0.017881822 -0.5758739
000360 98 3c 04 bd 51 13 c4 3e eb f7 d0 be dc 48 01 bf
       -0.03228435 0.38295987 -0.40814146 -0.505018
000370 61 e4 c8 3d b9 55 33 3f 25 40 3b 3e f7 77 f6 3e
       0.09809185 0.7005268 0.18286188 0.481384
000380 ca 7b 95 be 8e 07 67 3f 86 f2 0e bf 48 f6 6a bf
       -0.29196006 0.902459 -0.5583881 -0.91782045
000390 4d 2f 89 bb ec 21 8f be ce 32 44 3f b1 09 a4 3f
       -0.004186547 -0.27955568 0.7664002 1.2815458
0003a0 3a d7 2d bf 83 64 52 be 5b 5e 9c 3e 3c 8b 43 bf
       -0.67906535 -0.20546155 0.30540738 -0.7638433
0003b0 e2 c8 3b bf 0b ae 05 be 98 8d 19 bf ea dd d0 be
       -0.733534 -0.13054673 -0.5998168 -0.40794307
0003c0 1d 47 2f be 17 b8 94 be 83 f3 5c 3f 71 67 08 bc
       -0.17116971 -0.290467 0.8630907 -0.008325444
0003d0 c3 15 1b 3f 94 f5 98 3e ec 5c bf be 8e 06 cf be
       0.6058008 0.2987486 -0.3737558 -0.40434688
0003e0 21 f5 19 3f f4 d1 8f bd 4d d1 9c be 32 fb 01 3f
       0.6013966 -0.07022467 -0.30628434 0.5077392
0003f0 68 14 a8 be cb b2 76 be f9 fd 17 3c c1 89 31 be
       -0.3282807 -0.24091642 0.00927686 -0.17337705

fc3.bias f4 [12]
000000 5b 4b a7 be 70 f7 06 3f ad c2 06 bf a8 40 5d bf
       -0.3267468 0.5272131 -0.526408 -0.8642678
000010 4e 99 eb 3e 5a 38 c5 be a4 54 32 bf 56 41 46 bf
       0.460154 -0.38519555 -0.696604 -0.77443445
000020 38 16 0a c0 36 27 91 bf fe f3 77 bd b6 dd dd bd
       -2.1576061 -1.1340091 -0.060535423 -0.10833304
